dqn_model.pth (torch, 5596 bytes, 6 tensors)

fc1.weight f4 [24, 4]
000000 a0 de cf be 78 32 c5 bc 81 0a b4 be e6 04 25 bd
       -0.40599537 -0.024071917 -0.35164264 -0.040287875
000010 e8 03 b6 3d ce 0e 1e be b8 a0 92 be 57 cd 38 3e
       0.08887464 -0.15435335 -0.28638244 0.18047081
000020 37 80 1d bf ff f6 e3 3e 61 95 ae 3f 8a 1d 71 3f
       -0.61523765 0.4452438 1.3639337 0.941857
000030 51 c7 7a 3d 61 64 fe 3e fe 1c e0 3f e8 8e 63 3f
       0.06122524 0.49685958 1.7508848 0.8888993
000040 65 f9 7b 3e 16 46 aa be f7 eb 43 bf 07 aa 61 3d
       0.24606855 -0.33256596 -0.7653193 0.05509379
000050 ff 80 aa 3d a0 fe 08 bf dd 78 dc 3c 80 11 cc be
       0.08325385 -0.53513527 0.0269131 -0.398571
000060 55 88 86 be 9e 6b da 3d 2b ba c3 3f d7 b1 98 3f
       -0.26275888 0.106650576 1.5291189 1.1929272
000070 55 53 03 be 12 7f e5 bd 97 30 16 bf 9b 81 26 3d
       -0.12824757 -0.11205877 -0.5866789 0.040650945
000080 ef e5 93 be ec 27 e1 bd 9a c2 e1 3d 75 4e 16 3d
       -0.28886363 -0.109939426 0.110234454 0.036695916
000090 d7 d5 fa bd db 5d 0f be b9 cb 01 bf 83 51 bd 3a
       -0.12247818 -0.14000647 -0.5070148 0.0014443848
0000a0 74 c9 d4 be 32 ce 90 be 18 1d 5d 3e 39 c0 21 bf
       -0.41559947 -0.28282315 0.2159313 -0.63183933
0000b0 fb 26 12 bd 5b 04 ca be 3f 85 97 be 55 18 12 be
       -0.035681706 -0.39456448 -0.29593846 -0.14267094
0000c0 2d 47 48 3e b8 ff c0 be 3e 72 0d bf 7a 54 87 3e
       0.19558401 -0.37695098 -0.55252445 0.26431638
0000d0 2a 5d c0 3e bd 76 ab be 4f 26 17 3e df 54 18 3e
       0.3757108 -0.33489028 0.14760707 0.14876126
0000e0 83 15 8e be 91 56 d1 bd cf 12 c3 be fb de a7 be
       -0.27750787 -0.10221589 -0.38100287 -0.32787308
0000f0 a8 7a 68 bf 07 47 a3 be 0e d3 64 3f 04 93 7f 3f
       -0.9081216 -0.31890127 0.89384544 0.99833703
000100 8a 50 2c 3e ca 9c 58 3e 7b 87 1a 40 1e 48 31 3f
       0.16827598 0.2115356 2.414519 0.6925067
000110 17 50 2e be 53 d0 99 be dd c7 9f be e8 0b 1b 3d
       -0.1702274 -0.3004175 -0.3120717 0.03785315
000120 1d 5b 6c 3e 00 87 d7 3b d4 01 fb be 30 bd 73 3e
       0.23081632 0.0065773726 -0.49024832 0.23802638
000130 fa a3 89 bc 11 f4 15 bf 09 bf ca be e1 36 8f 3b
       -0.016801823 -0.5857554 -0.39598873 0.0043705557
000140 03 dd 86 be 26 99 2b bf b8 62 fd be 92 e4 28 be
       -0.26340494 -0.6703056 -0.4948938 -0.16493443
000150 3f 71 93 be e2 7f c3 be 31 92 21 bf 75 98 92 bc
       -0.28797337 -0.38183504 -0.63113695 -0.017894963
000160 fe bd a3 be 6f cd 89 3d 03 c8 a8 3e 5e 35 03 3e
       -0.3198089 0.067286365 0.32965097 0.12813327
000170 7f b5 88 be 2f be 4c be f0 ed 81 3e 63 6a 47 be
       -0.2670097 -0.19994424 0.25376844 -0.19474177

fc1.bias f4 [24]
000000 20 24 92 3f 1f a6 32 3f 0f 0a 6f 3e 07 9d 1e 3e
       1.1417274 0.6978473 0.23343681 0.15489589
000010 91 95 09 3f 97 fc 44 3f 40 73 d3 3e 68 bf 5a 3f
       0.53743845 0.7694792 0.41298866 0.8544831
000020 2c ea 77 3f ed 84 23 3f 32 78 31 be 06 fd 51 3f
       0.9684169 0.63874704 -0.17331007 0.8202671
000030 a8 fd 99 3f 08 3d 80 3f b1 54 79 3f bf 12 f9 be
       1.2030535 1.0018625 0.97394854 -0.48647115
000040 95 eb 21 3d 46 ef 7d 3f f2 f0 1f 3f 26 57 93 3f
       0.03953131 0.9919323 0.6247703 1.151097
000050 e9 fe 8a 3f f6 ee 1b be 0f 04 48 3f 0d 58 89 3f
       1.0859042 -0.15227875 0.7813119 1.0729996

fc2.weight f4 [24, 24]
000000 f2 cb 48 3f 4a 4c 6a 3e 99 6c 86 bf 10 ae 1b bf
       0.78436196 0.22880664 -1.0501891 -0.60812473
000010 3d 0f 2f 3e 55 14 db 3e e0 61 18 bf 2b 8a d5 3e
       0.17095657 0.4278895 -0.59524345 0.41706976
000020 28 fd 0c 3f 45 2d d1 3e 31 f1 ea 3e ca 5f a1 3e
       0.55073786 0.4085485 0.4588714 0.31518394
000030 df c8 1c 3f d9 c5 ed 3e 1e 15 6d 3e 5a 4e f7 be
       0.61244005 0.46440008 0.23152587 -0.48301965
000040 1a 94 88 bf e9 74 92 3e dd 6a 8f 3e 52 19 be 3e
       -1.0670197 0.2860482 0.28011218 0.37128693
000050 17 64 22 3f b6 08 69 be a5 96 c4 3e c1 b0 e5 3e
       0.63433975 -0.22757229 0.38396183 0.44861415
000060 80 0b 52 3f f8 e9 a3 3e 9e 65 e8 be 92 d1 ac be
       0.820488 0.32014441 -0.45390028 -0.3375364
000070 47 00 0f 3e e1 e0 88 3e a7 f8 7a bd 99 aa 7d 3e
       0.1396495 0.2673407 -0.06127229 0.24772109
000080 9e 9c 36 3f 0b b8 7a 3e 03 e8 1e 3e a0 8a 31 3f
       0.7133273 0.2448427 0.15518193 0.6935215
000090 09 33 e6 3e ce b6 02 3f 1c 32 8b 3e a7 5a f4 be
       0.44960812 0.5106019 0.27186668 -0.47725412
0000a0 87 35 84 bf 32 05 29 3f 06 7f d3 3d 99 8b 28 3f
       -1.0328835 0.6602355 0.10326962 0.6583801
0000b0 dc e1 7d 3f 17 61 1a bf e0 91 1a 3f bc a6 23 3f
       0.9917276 -0.603044 0.6037884 0.6392629
0000c0 1b a5 47 3f c7 b7 29 3f 2a a8 c9 be b2 93 04 bf
       0.77986306 0.66296047 -0.39386111 -0.51787865
0000d0 b7 86 fa 3d 14 1d a6 3e 52 93 7c be 13 a9 69 3e
       0.12232726 0.3244406 -0.24665573 0.22818403
0000e0 7a 55 54 3f b4 4f a2 3e d9 1a fb 3d f7 d9 22 3f
       0.82942927 0.31701434 0.1226098 0.6361384
0000f0 a3 6c 26 3f ba 83 d0 3e 83 c1 e1 3e 94 ea d4 be
       0.65009516 0.407255 0.4409295 -0.4158522
000100 f9 12 43 bf ee 11 27 3f 81 94 d4 3e 41 27 2e 3f
       -0.76200825 0.65261734 0.4151955 0.68028647
000110 7b 48 7f 3f 15 9d 81 be a6 47 f6 3e a3 8c 57 3f
       0.9971997 -0.25315157 0.48101538 0.8419897
000120 b1 62 cd 3e b3 2f da 3e ce a7 3d bf 07 8b 2a bf
       0.40114358 0.42614517 -0.74084175 -0.6661839
000130 c8 bd 59 3e 5a 6c ff 3d 39 ad 47 bf 33 36 ab 3e
       0.21263802 0.12471838 -0.7799869 0.33439788
000140 f1 c2 2d 3f ef 17 6b 3d 4f f2 6a 3e 99 53 f7 3e
       0.6787558 0.05739587 0.22943996 0.48305967
000150 a5 f9 01 3f 0c cc e3 3e 29 5e 66 3e bf bd 9f be
       0.5077155 0.44491613 0.22496857 -0.31199452
000160 9e ce 94 bf a9 7b d1 3e 20 35 19 3e 2c bd 07 3f
       -1.1625555 0.40914658 0.14961672 0.5302303
000170 62 46 17 3f 11 66 4a be c7 c2 0c 3f ab 7a 1a 3f
       0.5909177 -0.19765498 0.54984707 0.60343426
000180 9b b4 f9 bd 55 a2 38 be cc d5 c3 bd 00 27 71 3c
       -0.12192651 -0.18030675 -0.09562263 0.014718771
000190 10 2d 59 3c 70 5c 21 be 2e 00 4a 3e 4c 2f 48 be
       0.013255373 -0.15757918 0.19726631 -0.19549292
0001a0 10 35 ac bd 20 9a eb 3d 3a b4 45 3e 57 05 0d be
       -0.08408558 0.115040064 0.19307032 -0.13771568
0001b0 d5 65 b7 bd 65 ef 1d be fc 3e dd 3d 0a 23 28 be
       -0.0895497 -0.15423353 0.10803029 -0.16419616
0001c0 c4 5b d2 3d a5 f7 3a be 30 cb 09 3c 1c fd 2e bd
       0.10271409 -0.18258531 0.00841026 -0.042721853
0001d0 bc f4 81 3d cc ae b1 bd 51 71 41 be a8 15 75 3d
       0.063455075 -0.08675918 -0.18890883 0.059835106
0001e0 b0 7d 66 bd 23 69 0a be e4 05 b1 3d 6e 26 13 be
       -0.05627221 -0.13516669 0.08643702 -0.14370129
0001f0 a4 7e 14 3d c0 f6 0b 3b 50 f9 ed bd 52 60 0b be
       0.036253586 0.0021356791 -0.11619818 -0.13610962
000200 4b fe 44 3d e3 a1 59 be 18 15 13 be c5 0b 1f be
       0.048094075 -0.21253161 -0.14363515 -0.15531833
000210 81 d9 f3 bd 2a 76 e9 3d cc 64 7a bd 1e 86 46 be
       -0.1190672 0.11399491 -0.061131284 -0.19387099
000220 c8 ef 74 bd 16 d0 ab bd cf 92 20 3e b2 cb 17 be
       -0.059798986 -0.083892986 0.15681003 -0.14823797
000230 f6 25 3a 3e a0 90 52 bc 17 14 10 be 00 b7 eb 3d
       0.18178543 -0.012851864 -0.14070164 0.11509514
000240 16 f5 90 3e 77 16 65 3e 8d 0d bd bf 8b 55 2a bf
       0.28311986 0.22371851 -1.476976 -0.6653678
000250 f7 8c 1f 3e 0c 58 90 3e b8 16 9a bf 03 65 09 3f
       0.15581118 0.28192174 -1.2038183 0.53669757
000260 5e d3 bc 3e d0 d2 b0 3e 2a 99 d5 3e f1 eb 9b 3e
       0.3688001 0.34535837 0.41718417 0.30453447
000270 41 a1 ca 3e bd d2 ce 3e f0 2d 00 3f d1 ca 0a be
       0.39576152 0.40395156 0.50070095 -0.13553931
000280 bb 91 57 bf f0 70 47 3c a4 80 82 3e fc 98 81 3e
       -0.8420674 0.0121729225 0.2548877 0.2531203
000290 37 a8 cf 3e cb 42 63 be e8 bc b9 3e ae e8 c5 3e
       0.40558025 -0.22193448 0.36276937 0.38654083
0002a0 48 54 6e 3f bd a1 ca 3e a2 ed 29 bf 9c b6 13 bf
       0.93097353 0.39576522 -0.66378224 -0.57700515
0002b0 9d 93 c1 3d 90 11 f2 3e fb 23 e4 be e3 90 25 3f
       0.09451983 0.47279024 -0.445587 0.64674205
0002c0 8a 1a 4c 3f 8a 1a c0 3e 4c 70 b1 bc 2d 03 f2 3e
       0.79727995 0.37520248 -0.021659993 0.47268048
0002d0 39 a4 e5 3e dd ca 18 3f d4 3b d0 3e cd 00 cc be
       0.44851854 0.59684545 0.40670645 -0.3984436
0002e0 b3 8c 91 bf 4b d3 b6 3e 5b 3b 04 3e 8c 91 ff 3e
       -1.1371063 0.3570808 0.12913267 0.4991573
0002f0 a3 59 28 3f b2 05 33 be fa b7 33 3f d4 51 36 3f
       0.65761775 -0.17482641 0.702026 0.7121861
000300 a6 67 03 be db cc 0d be 73 78 84 3d f9 c2 6b 3d
       -0.12832507 -0.13847677 0.06468286 0.057558987
000310 7b 0b 15 3e 61 12 b8 3d fa a0 79 3d 87 2d fe 3c
       0.1455516 0.089878805 0.060944535 0.031027569
000320 34 fc d9 3d ff e9 13 be 93 f1 39 be 24 65 fa bb
       0.10643807 -0.14444731 -0.1815856 -0.0076414514
000330 1e ed 47 3b b6 5c 47 be 4e 4d e1 bd 41 9c cf bd
       0.0030506323 -0.1946896 -0.11001073 -0.10137225
000340 02 b1 38 be c5 24 74 be c9 62 6b bd e2 fd 0d 3d
       -0.18036273 -0.23842151 -0.057467256 0.03466595
000350 14 da 56 bc 93 9b 04 3e 17 e0 b4 3d 3d 81 7e 3d
       -0.013113517 0.12949972 0.08831804 0.06213497
000360 ef 8e 34 3f da 28 09 3f 56 96 dd be 4e 2d f8 be
       0.705306 0.5357796 -0.4327876 -0.48472065
000370 ce c1 4e 3e f0 d8 59 3e d1 7f 58 bd fa ca f2 3e
       0.20191118 0.21274161 -0.05285627 0.47420484
000380 85 70 ef 3e dc f1 46 3e 64 28 68 3e 6d 1d f4 3e
       0.46765533 0.194282 0.22671658 0.476787
000390 44 54 ef 3e 4f c9 94 3e db c1 dd 3e bd dd dc be
       0.46743977 0.29059836 0.43311962 -0.43137923
0003a0 c1 e7 48 bf 4f f3 e1 3e 09 62 99 3e 0f 5e 29 3f
       -0.7847863 0.44130942 0.29957607 0.6615915
0003b0 8f 15 58 3f e7 80 de be 8d 74 26 3f 2e 12 eb 3e
       0.84407896 -0.4345772 0.6502159 0.45912308
0003c0 ae b2 65 3f 4b 65 a4 3e b1 ff 26 bf a4 0d d9 be
       0.8972577 0.3210853 -0.65233904 -0.4239322
0003d0 93 20 95 3e ba 01 ed 3e c4 22 14 bc b0 87 a1 3e
       0.29126415 0.4629038 -0.009041492 0.31548834
0003e0 66 30 56 3f 0b d4 f0 3d 22 dc 84 3e c1 e3 dc 3e
       0.836676 0.11759194 0.25949198 0.43142512
0003f0 54 96 03 3f 68 58 0b 3f 6d 06 bb 3e f7 4f cb be
       0.5140126 0.5443177 0.3652834 -0.39709446

fc2.bias f4 [24]
000000 2b 82 e9 3e 28 95 f5 3e f4 84 ce 3e 49 1d 89 3e
       0.45607123 0.4796536 0.4033581 0.26780155
000010 fa 91 88 bd a1 06 48 bd 9b 42 08 3f 89 04 d1 3e
       -0.06668468 -0.048834447 0.5322663 0.40823773
000020 62 de a7 bd 2e a9 bd 3e e7 11 76 3e 58 0c 94 bd
       -0.08196713 0.37043136 0.24030267 -0.07228917
000030 9b 90 11 3f bd 39 23 3f 71 8a ae 3e a1 4c 65 3d
       0.56861275 0.63759977 0.34089997 0.055981282
000040 a4 1a ec bd 5c 40 56 bd 31 1c 05 3f c4 46 32 3f
       -0.11528519 -0.05230747 0.5199614 0.6963923
000050 4e a6 0e 3f 20 24 06 3f 76 5c 5c be 43 5a 01 3f
       0.5572251 0.5239887 -0.21519646 0.50528353

fc3.weight f4 [2, 24]
000000 e2 ea 51 3f 87 e5 05 3f cc eb e9 3e 01 09 74 3f
       0.8199903 0.52303356 0.4568771 0.9532624
000010 aa 6e 05 3e 67 8e a0 bd ed 94 7c 3f 77 19 40 3f
       0.13030496 -0.07839661 0.9866474 0.75038856
000020 f1 f5 05 be d2 9f ed 3e e7 f1 00 3f c0 d1 74 3c
       -0.130821 0.46410996 0.50369114 0.014942586
000030 d4 96 31 3f d8 fc 3a 3f 28 9c 2a 3f 6d d2 9c 3e
       0.6937077 0.7304206 0.66644526 0.30629292
000040 2a 28 25 be 1c 93 49 be cb 2d 67 3f fb e9 24 3f
       -0.16128603 -0.19685024 0.9030425 0.64419526
000050 e5 01 3b 3f f2 38 35 3f a3 d1 32 bd 5a 3e 53 3f
       0.73049766 0.70790017 -0.043656956 0.82517016
000060 29 cc f3 3e 66 69 3e 3f 5a 4e 30 3f e0 cf 1f 3f
       0.476167 0.74379575 0.68869555 0.6242657
000070 b8 54 21 be 60 83 49 3c 5d 4a 7d 3e 07 9c 3b 3f
       -0.15754974 0.012299389 0.24735399 0.73284954
000080 8e cc df bd 52 4d 26 3f 0b 88 3d 3f c8 c8 4a 3e
       -0.109276876 0.6496173 0.7403571 0.19803154
000090 83 65 3d 3f 04 a2 2a 3f 82 59 16 3f 77 49 3b 3f
       0.7398302 0.66653466 0.5873033 0.73158973
0000a0 74 78 15 3e c6 32 18 be e8 c5 0c 3f f0 67 21 3f
       0.1459673 -0.14863119 0.5498948 0.6304922
0000b0 78 f6 14 3f f2 98 3a 3f 5e c0 43 bd bc 50 1e 3f
       0.5818858 0.72889626 -0.047790878 0.6184194

fc3.bias f4 [2]
000000 e6 6b 10 3f 10 9f 9d 3e
       0.5641464 0.30785418
